AttackMNIST/Models/MNIST/mnist_tf.tflite (tflite, 28256 bytes, 6 tensors)

sequential/dense_1/BiasAdd/ReadVariableOp f4 [16]
0.5448666 -0.19503668 -0.015657451 0.1978715 -0.06815681 -0.01030546 0.33445558 0.14062947
0.09530146 0.25701147 0.38156655 -0.43343005 0.32505828 0.56921655 -0.37153107 0.24125056
00000000: 617c 0b3f b2b7 47be 0e44 80bc d49e 4a3e
00000010: cc95 8bbd 3bd8 28bc c33d ab3e 2c01 103e
00000020: 692d c33d 0297 833e b15c c33e 8bea ddbe
00000030: 0a6e a63e 2db8 113f 5239 bebe 630a 773e

sequential/dense_2/BiasAdd/ReadVariableOp f4 [10]
0.42774913 0.08073307 -0.15269172 0.17585063 0.21283618 -0.10382866 0.064467795 -0.08113972
0.28774095 0.013440455
00000000: ef01 db3e 6157 a53d 385b 1cbe 3012 343e
00000010: baf1 593e 1fa4 d4bd b107 843d 952c a6bd
00000020: c852 933e 5b35 5c3c

sequential/dense/BiasAdd/ReadVariableOp f4 [8]
0.13130271 0.23441213 0.099103026 0.11404661 0.14208503 0.67744565 0.07921543 0.8843667
00000000: 3874 063e bc09 703e 87f6 ca3d 4591 e93d
00000010: bd7e 113e 146d 2d3f b33b a23d db65 623f

sequential/dense/MatMul f4 [8, 784]
-0.026023429 -0.029133566 -0.083031595 0.051937222 -0.07284444 0.056733623 -0.03078048 -0.00670781
-0.06814954 -0.041822966 -0.015082255 -0.01512932 0.02784916 -0.02475243 -0.026958458 0.059903383
-0.025327917 0.07692425 0.0013460144 0.049886048 -0.06791886 0.05983357 0.06162235 0.06601237
0.06887622 0.06826615 0.054820776 -0.035296876 0.07394911 0.008528709 -0.04289786 -0.04344531
0.049454853 -0.03616552 -0.013299517 0.007823482 0.053615868 -0.10923294 0.030519493 0.19822292
0.1522197 0.10770917 -0.08443018 -0.06900931 -0.027103525 0.000465573 -0.036310676 0.002594538
-0.0131439045 -0.051734235 0.07886112 0.08412725 0.07658279 0.034699373 0.072189674 -0.01713723
0.026404448 -0.051117122 0.085992366 0.07599045 0.1310671 -0.079094425 -0.22354317 0.02152964
-0.20970406 -0.22223088 -0.3212321 -0.18537463 -0.20406218 -0.21267478 -0.165924 -0.19671673
-0.37844276 -0.48382404 -0.42360222 -0.1739166 -0.2777453 -0.16615723 -0.1853171 -0.09892897
-0.079016045 0.03695699 -0.079812035 -0.05535835 0.020586535 0.010966405 0.022781834 0.13147804
0.2197597 0.10289982 -0.21554853 0.019786486 -0.14560552 -0.15801546 -0.35808495 -0.1727093
-0.15539378 0.071078375 -0.11284154 -0.11285457 -0.02707276 -0.0065888185 -0.18870763 -0.09480831
-0.13106366 -0.17845774 -0.2954822 -0.11881214 0.05241947 -0.1067495 -0.13409996 0.051326886
0.032394752 -0.0643575 0.08580454 -0.10064682 0.122585975 -0.1742673 -0.15485543 -0.12748678
-0.0016076021 0.025168203 0.057367496 0.024738502 -0.06673134 -0.046275537 -0.007190723 0.0016069615
-0.035432484 -0.054395612 -0.025932178 -0.034223482 0.04670787 -0.054270808 -0.09028742 -0.010402417
-0.015833776 0.021587394 0.0127557395 0.033803172 -0.02227661 -0.05772103 -0.26491016 0.08100224
-0.06556324 -0.16141322 -0.07762951 -0.028490964 0.036443826 -0.087489024 0.03155784 -0.020976977
-0.019687787 0.05683395 0.08301964 0.029162092 -0.02090701 0.07676404 0.0065423613 -0.016690547
0.013604 -0.11481987 -0.020856043 0.021290531 -0.098691076 -0.35893875 -0.14874336 -0.14339279
-0.07676268 -0.04129085 0.1313817 -0.08927974 0.034701545 -0.09093715 0.04651758 -0.1276551
-0.072772555 -0.13918804 -0.022112135 -0.06854534 -0.007920775 0.020157797 0.059138127 0.039469242
0.036697052 0.06433298 0.031317376 0.04168941 -0.008929987 0.061574478 0.08436007 -0.08359508
-0.38451183 -0.5006807 -0.42976296 -0.22582297 -0.071570866 0.071013354 -0.06573021 -0.07477603
-0.09028609 0.09907035 0.04969122 0.00789457 -0.061927985 -0.006588392 -0.0071820086 0.022358999
-0.035995927 0.0600988 0.026861167 0.025086489 0.026540468 0.07364026 0.12644544 0.040483937
0.0658528 -0.006514867 0.048061658 0.039096925 -0.2321118 -0.2405588 -0.26092133 0.08047673
0.21712518 -0.051992696 -0.061795995 -0.12861298 -0.15875608 -0.09155859 -0.04062095 0.04341794
-0.05368196 0.00776948 0.019516436 -0.0050131665 0.09071395 0.015360683 0.03791862 0.046849474
0.14684872 0.080752134 0.03642438 0.080514625 0.028398303 0.004228728 -0.054584097 0.041835897
-0.16181538 -0.48145282 -0.40135568 0.054542236 0.029942445 0.08035821 -0.08391873 -0.101109505
00000000: 162f d5bc 84a9 eebc 780c aabd 20bc 543d
00000010: 772f 95bd 8461 683d 5827 fcbc 30cd dbbb
00000020: fc91 8bbd 8f4e 2bbd 901b 77bc f8e0 77bc
00000030: ec23 e43c 9cc5 cabc fcd7 dcbc 405d 753d
00000040: 7e7c cfbc 768a 9d3d c06c b03a 5055 4c3d
00000050: 0b19 8bbd 0c14 753d b867 7c3d 7e31 873d
00000060: fa0e 8d3d 20cf 8b3d c08b 603d 7593 10bd
00000070: a272 973d 00bc 0b3c abb5 2fbd b6f3 31bd
00000080: 2c91 4a3d 4c22 14bd 38e6 59bc 102e 003c
00000090: 509c 5b3d 85b5 dfbd 0404 fa3c f3fa 4a3e
000000a0: 7bdf 1b3e a096 dc3d bbe9 acbd c154 8dbd
000000b0: 3608 debc 2618 f439 81ba 14bd 2009 2a3b
000000c0: 8859 57bc 47e7 53bd f081 a13d e84a ac3d
000000d0: 70d7 9c3d ee20 0e3d 2ed8 933d 6063 8cbc
000000e0: 244e d83c 3060 51bd c41c b03d e2a0 9b3d
000000f0: 7436 063e 42fc a1bd 80e8 64be ed5e b03c
00000100: a9bc 56be 7e90 63be 8978 a4be d9d2 3dbe
00000110: adf5 50be 6bc7 59be fbe7 29be 1c70 49be
00000120: 40c3 c1be c9b7 f7be 64e2 d8be 3117 32be
00000130: a234 8ebe 1f25 2abe c4c3 3dbe 469b cabd
00000140: 2ad3 a1bd 3660 173d 7e74 a3bd 70bf 62bd
00000150: 18a5 a83c 70ac 333c f8a0 ba3c 2ea2 063e
00000160: b008 613e 24bd d23d c1b8 5cbe 4517 a23c
00000170: 9d19 15be cece 21be e956 b7be b5da 30be
00000180: 8c1f 1fbe 8a91 913d 7719 e7bd 4c20 e7bd
00000190: b1c7 ddbc 04e7 d7bb 933c 41be dc2a c2bd
000001a0: 8d35 06be a0bd 36be 7149 97be c753 f3bd
000001b0: ccb5 563d 7b9f dabd 8051 09be 243c 523d
000001c0: 5cb0 043d ddcd 83bd 4aba af3d ec1f cebd
000001d0: 5b0e fb3d 2173 32be 6c92 1ebe e58b 02be
000001e0: 2db6 d2ba 8c2d ce3c 2efa 6a3d 66a8 ca3c
000001f0: 71aa 88bd 6b8b 3dbd 28a0 ebbb aea0 d23a
00000200: a721 11bd efcd 5ebd b86f d4bc ec2d 0cbd
00000210: c050 3f3d 114b 5ebd 9ce8 b8bd e66e 2abc
00000220: d6b5 81bc 0cd8 b03c 73fd 503c 3275 0a3d
00000230: 707d b6bc e36c 6cbd 4ea2 87be 81e4 a53d
00000240: 0546 86bd 8249 25be 38fc 9ebd e265 e9bc
00000250: 1f46 153d 722d b3bd cb42 013d e9d7 abbc
00000260: 4848 a1bc b7ca 683d 3306 aa3d 57e5 ee3c
00000270: 2e45 abbc 7736 9d3d 4e61 d63b 9dba 88bc
00000280: 50e3 5e3c ae26 ebbd 4bda aabc 7b69 ae3c
00000290: 8c1e cabd d2c6 b7be 2e50 18be 8fd5 12be
000002a0: c135 9dbd 9820 29bd ed88 063e 4cd8 b6bd
000002b0: 3523 0e3d 423d babd 3889 3e3d 05b8 02be
000002c0: c709 95bd 4f87 0ebe 8224 b5bc 8061 8cbd
000002d0: 23c6 01bc f721 a53c d23a 723d 80aa 213d
000002e0: a64f 163d 02c1 833d a646 003d 84c2 2a3d
000002f0: 154f 12bc 8535 7c3d f9c4 ac3d e633 abbd
00000300: bcde c4be 9c2c 00bf e409 dcbe 233e 67be
00000310: bf93 92bd 736f 913d 8f9d 86bd 2d24 99bd
00000320: eae7 b8bd 65e5 ca3d 0589 4b3d 3a58 013c
00000330: 33a8 7dbd 70e3 d7bb 0e57 ebbb 382a b73c
00000340: 7770 13bd 292a 763d f30b dc3c 2e82 cd3c
00000350: 656b d93c b4d0 963d ea7a 013e 7cd2 253d
00000360: d5dd 863d aa7a d5bb 4ddc 443d 1924 203d
00000370: b7ae 6dbe 0c55 76be 7b97 85be fcd0 a43d
00000380: 1056 5e3e 4bf6 54bd cc1d 7dbd 1fb3 03be
00000390: f490 22be 1283 bbbd 2762 26bd 03d7 313d
000003a0: 9de1 5bbd 1f97 fe3b efe0 9f3c 7d45 a4bb
000003b0: 3cc8 b93d 60ab 7b3c 8e50 1b3d 3ce5 3f3d
000003c0: 835f 163e 6061 a53d bb31 153d dae4 a43d
000003d0: 8fa3 e83c 2491 8a3b 9393 5fbd 1e5c 2b3d
000003e0: eeb2 25be fc80 f6be 7e7e cdbe ae67 5f3d
000003f0: dc49 f53c d892 a43d 95dd abbd 8012 cfbd

sequential/dense_1/MatMul f4 [16, 8]
-0.5127809 -0.26196477 -0.2645911 -0.44282472 -0.043273587 -0.08564065 0.057601247 -0.45536542
0.37806776 -0.13684818 0.38044387 0.61626446 0.25907254 0.34070864 -0.10747761 -0.45336515
0.0044130944 -0.2562424 0.25866565 -0.2437781 0.014590186 -0.5711628 -0.062752716 0.029216291
0.1799695 -0.14127266 -0.20423554 -0.5538286 -0.18019843 0.3792873 -0.06824184 -0.17423244
-0.83143944 0.04758411 0.02807544 0.11140395 0.15880099 0.14540464 0.22903532 -0.50876963
-0.06252491 -0.094083 0.112050384 0.24105333 0.73419744 0.65713483 -0.014640727 -0.47706345
0.15717019 0.12852523 0.1261108 -0.48138803 0.21798478 0.12158521 -0.025819745 0.29281685
-0.36939356 0.18090442 -0.020989837 0.16918905 0.11500062 0.34292734 0.17258814 0.10129097
0.37123355 -0.42492464 0.15462507 0.35786706 -0.17530632 -0.0990209 -0.07921201 0.32145077
-0.18120988 -0.4658829 0.18428266 -0.2672035 -0.33744225 -0.24811964 -1.0166345 0.38535044
-0.2655162 0.08892675 0.111811444 -0.4845367 -0.2663016 0.18095854 -0.006147369 0.23591653
0.12260315 0.058148142 0.04863112 0.13221094 0.5882284 0.50542414 -0.03363961 -0.0515361
-0.16251566 -0.010348186 0.016058067 0.23231615 0.39732847 0.0071698553 -0.11963349 0.032794982
-0.4159159 -0.08443387 -0.08173758 -0.3705876 -0.6743343 -0.6641878 -0.8561175 -0.7648879
-0.51581264 0.23367746 -0.05926791 0.21079475 0.23592488 0.48606715 0.2482491 0.060598746
-0.12099246 -0.72151446 0.267416 -0.71292806 -0.03717564 -0.004477121 -0.088896796 0.42154518
00000000: 9c45 03bf 3f20 86be 7c78 87be ecb9 e2be
00000010: a53f 31bd 5d64 afbd 49ef 6b3d a825 e9be
00000020: 1992 c13e ee21 0cbe 8ac9 c23e 82c3 1d3f
00000030: 28a5 843e 5d71 ae3e 391d dcbd 7a1f e8be
00000040: b89b 903b 3432 83be d36f 843e f7a0 79be
00000050: ad0b 6f3c ba37 12bf 7f84 80bd 0157 ef3c
00000060: ed49 383e c8a9 10be 1f23 51be b6c7 0dbf
00000070: f085 38be f231 c23e 61c2 8bbd fd69 32be
00000080: 37d9 54bf 8ee7 423d 77fe e53c c127 e43d
00000090: ba9c 223e f4e4 143e 3c88 6a3e ba3e 02bf
000000a0: 0f0d 80bd 97ae c0bd ac7a e53d afd6 763e
000000b0: 5df4 3b3f fd39 283f a9df 6fbc a941 f4be
000000c0: 39f1 203e 1e9c 033e 3123 013e 7e78 f6be
000000d0: 6737 5f3e ab01 f93d ee83 d3bc 17ec 953e
000000e0: 2721 bdbe 023f 393e e1f2 abbc e53f 2d3e
000000f0: 7285 eb3d 2c94 af3e f2ba 303e a471 cf3d
00000100: 5312 be3e b98f d9be 0956 1e3e 5a3a b73e
00000110: 8083 33be 78cb cabd e839 a2bd 3295 a43e
00000120: 158f 39be 3488 eebe 98b4 3c3e e6ce 88be
00000130: 3bc5 acbe 1313 7ebe 1421 82bf a74c c53e
00000140: bdf1 87be 3a1f b63d 66fd e43d 3215 f8be
00000150: af58 88be 324d 393e de6f c9bb 1a94 713e
00000160: 5c17 fb3d bf2c 6e3d 6d31 473d 4e62 073e
00000170: 2396 163f 7a63 013f b0c9 09bd 8517 53bd
00000180: 816a 26be 708b 29bc 358c 833c 49e4 6d3e
00000190: a36e cb3e 1bf1 ea3b 6702 f5bd 0854 063d
000001a0: eef2 d4be aaeb acbd 0866 a7bd a8bd bdbe
000001b0: 2ca1 2cbf 3608 2abf 842a 5bbf b2cf 43bf
000001c0: 4c0c 04bf 2549 6f3e e8c2 72bd 94da 573e
000001d0: 4b96 713e cbdd f83e 0335 7e3e 6436 783d
000001e0: e5ca f7bd 2cb5 38bf c0ea 883e 7482 36bf
000001f0: 7c45 18bd d0b4 92bb 860f b6bd c5d4 d73e

sequential/dense_2/MatMul f4 [10, 16]
-0.16212158 0.10556681 -0.083798565 0.2123623 0.055912055 -0.082346946 0.35073525 -0.64798635
0.10070262 -0.09871005 -0.3817018 0.06558052 -0.34332487 -0.20656757 0.3732868 -0.053382173
-0.05778957 -0.63399196 0.18566483 0.22620587 -0.30754778 -0.2173937 -0.54286015 0.5458148
0.6457341 0.007913575 -0.03921723 0.5110233 0.38115275 -0.13359122 -0.13867137 -0.3681247
0.3402303 -0.19203556 -0.025453694 -0.18964043 -0.11888986 0.333092 0.6420651 0.101683214
-0.07822407 -0.02407952 -0.7178149 -0.48126072 0.31131274 -0.107121244 0.029859578 0.12075067
-0.3613599 0.43428344 0.034033936 -0.4213209 0.21019198 0.56365204 -0.08437934 0.24794085
-0.17346539 0.08963504 -0.082821146 -0.8155599 -0.32772377 0.39049536 -0.31989387 0.04201381
-0.055728525 -0.032132283 0.018578323 -0.10576801 -0.007442963 0.022564558 -0.17226857 -0.53162634
0.0076007266 0.9540808 0.25372547 -0.009699809 0.08656966 -0.6760238 0.37218362 -0.03464877
0.104549974 -0.22388934 -0.04416201 0.97172415 -0.19514418 0.37880078 -0.37571457 0.08447131
-0.03896708 -0.00024642656 0.395494 -0.426238 0.19142453 -0.4343515 0.042769622 0.038297467
0.039748274 0.0009937511 -0.043977816 -0.029571734 -0.06637675 0.008471064 -0.04041471 -0.16007955
-0.0104828 -0.027087882 0.02273178 -0.028928237 0.019520687 1.6190104 0.16268936 0.036917906
-0.30204907 0.23282436 0.33003908 -0.03665579 -0.14215624 -0.35822695 0.5186028 0.21211028
-0.45409906 0.069916464 0.13938747 -0.1590884 0.35483083 0.033202592 0.15460286 -0.47228527
0.7722703 0.49264276 0.119933404 -0.23063274 0.22328344 -0.8704647 -0.18972631 0.43552312
-0.35937113 0.124705724 -0.089232825 1.2392272 -0.41120178 -0.8805179 -0.5462453 0.069190204
-0.27177054 -0.20010348 -0.3032999 -0.406428 0.29528368 0.3018591 -0.011969742 -0.03962705
0.38658231 -1.0405544 0.36343098 0.027951334 -0.36946973 0.5168938 -0.28802076 0.6044936
00000000: 3303 26be 6933 d83d 959e abbd 8175 593e
00000010: 0a04 653d 84a5 a8bd 9293 b33e 6fe2 25bf
00000020: 2d3d ce3d 7f28 cabd 6b6e c3be 144f 863d
00000030: 47c8 afbe 7386 53be 731f bf3e 44a7 5abd
00000040: c2b4 6cbd 4c4d 22bf ec1e 3e3e 83a2 673e
00000050: e776 9dbe 749c 5ebe e2f8 0abf 85ba 0b3f
00000060: d44e 253f f0a7 013c 3fa2 20bd 6cd2 023f
00000070: 7426 c33e 23cc 08be deff 0dbe d77a bcbe
00000080: aa32 ae3e f8a4 44be 4484 d0bc 1a31 42be
00000090: 877c f3bd 098b aa3e 615e 243f 4a3f d03d
000000a0: f133 a0bd 6a42 c5bc b8c2 37bf ce67 f6be
000000b0: 6264 9f3e 6262 dbbd 139c f43c 214c f73d
000000c0: 2a04 b9be 665a de3e 2b67 0b3d 5fb7 d7be
000000d0: 913c 573e 804b 103f 13cf acbd 35e4 7d3e
000000e0: e9a0 31be 9392 b73d 229e a9bd 89c8 50bf
000000f0: 69cb a7be 02ef c73e 21c9 a3be ac16 2c3d
00000100: 9843 64bd 249d 03bd 9131 983c e69c d8bd
00000110: 19e4 f3bb 4fd9 b83c 2c67 30be aa18 08bf
00000120: 840f f93b a43e 743f 4ee8 813e f3eb 1ebc
00000130: 6f4b b13d e50f 2dbf da8e be3e deeb 0dbd
00000140: 4c1e d63d 3f43 65be 39e3 34bd eac2 783f
00000150: e0d3 47be 2df2 c13e a95d c0be 4bff ac3d
00000160: f29b 1fbd d032 81b9 317e ca3e de3b dabe
00000170: cb04 443e 5263 debe 332f 2f3d cedd 1c3d
00000180: 16cf 223d c140 823a 1522 34bd 6c40 f2bc
00000190: 89f0 87bd 38ca 0a3c e589 25bd e5eb 23be
000001a0: 0dc0 2bbc 68e7 ddbc ff37 ba3c e9fa ecbc
000001b0: d9e9 9f3c bc3b cf3f 0a98 263e 3b37 173d
000001c0: 2da6 9abe 8269 6e3e e2fa a83e 6224 16bd
000001d0: 6891 11be 8669 b7be 27c3 043f 7033 593e
000001e0: ac7f e8be 5d30 8f3d 97bb 0e3e 12e8 22be
000001f0: 63ac b53e 71ff 073d 3650 1e3e 60cf f1be
00000200: 82b3 453f ac3b fc3e a59f f53d fd2a 6cbe
00000210: 6aa4 643e c6d6 5ebf 9d47 42be e3fc de3e
00000220: 7eff b7be b765 ff3d b3bf b6bd ff9e 9e3f
00000230: 0a89 d2be 9f69 61bf bbd6 0bbf 98b3 8d3d
00000240: 8225 8bbe ede7 4cbe 204a 9bbe 5517 d0be
00000250: 6c2f 973e 478d 9a3e bd1c 44bc f94f 22bd
00000260: 1eee c53e e330 85bf a013 ba3e 32fa e43c
00000270: 232b bdbe 2753 043f 7577 93be 18c0 1a3f
